source/source/notebooks/my_mnist.model (npz, 333924 bytes, 6 tensors)

l2/b f4 [100]
000000 22 ba b1 3d a6 16 c1 3c d7 16 27 bb e6 2b 87 b9
       0.0867808 0.02357037 -0.0025495791 -0.00025781913
000010 b7 48 d1 3c 8c 5d 10 3c 09 04 c8 38 9b 4b 48 3c
       0.025547368 0.008811366 9.537495e-05 0.012225057
000020 f1 5b d8 bb 5b 99 20 3d c6 6a fe bb b3 91 f3 bc
       -0.006602757 0.03920875 -0.007764193 -0.02973256
000030 2a 79 41 bc 72 b8 77 ba a6 d4 13 3c a2 e5 84 bc
       -0.011808673 -0.0009449787 0.009022867 -0.016222779
000040 42 25 87 3d dd 36 02 3d 5f 7b 9f 3d 94 d4 27 3d
       0.06598903 0.031790603 0.07787203 0.040974215
000050 4b be d3 b9 71 cb 90 3c 11 e7 97 bb 3f 48 92 ba
       -0.00040386835 0.017675133 -0.0046356996 -0.0011160447
000060 92 b9 66 3d 21 39 8a ba 2c 29 9a 3d ba 44 62 3b
       0.056329317 -0.001054559 0.07527384 0.0034525828
000070 ff 43 23 3d 6f fd 55 bb 59 f9 a5 bb 0d fb 79 3c
       0.039859768 -0.003265228 -0.005065125 0.015257609
000080 b9 c4 10 bd 19 38 86 3c b2 30 32 3d 0a f5 dc 3b
       -0.03534386 0.016384171 0.04350347 0.006743078
000090 c0 2f 4b 3d 97 76 9a 3c ea 01 d7 3d 9a db 25 3c
       0.049606085 0.018855376 0.10498412 0.010123158
0000a0 cf bc d0 3d bb 28 0c 3c 6a 12 6b 39 a4 d1 e8 bb
       0.101922624 0.008554633 0.00022418206 -0.0071050692
0000b0 c5 8f d1 3c 3c 24 79 3d 43 99 8f 3b 5d b7 a3 3c
       0.02558125 0.06082557 0.004382284 0.019984895
0000c0 ab 80 77 3d fc 6e 00 bd 7b d4 11 3c f1 ff 0d 3d
       0.06042544 -0.031355843 0.008900757 0.034667913
0000d0 99 a3 68 3a 79 b7 9d 3c 8c 4b ce 3b 76 ff 8b 3a
       0.00088744756 0.019252526 0.006295627 0.0010680992
0000e0 f6 aa 08 bc db 46 00 3d b1 72 ab 3c 5d aa a7 3a
       -0.0083415415 0.031317573 0.020928713 0.0012791861
0000f0 9d c5 9d 3c c0 ed 4b 3d 53 4e 8c 3c 8d 4e 82 3a
       0.019259268 0.049787283 0.017127192 0.0009941623
000100 17 ad 82 3d 42 82 84 3c 4e c9 b2 3d e2 0e c3 3d
       0.063806705 0.016175393 0.08729802 0.09524323
000110 de f7 6f bc 89 3e d7 3c 4b 42 65 3d 72 c0 45 ba
       -0.0146464985 0.026274936 0.055971425 -0.000754363
000120 38 e7 ac bb 83 74 81 bc 56 1b 17 3d b9 6d ab ba
       -0.005276587 -0.015802627 0.036891304 -0.0013078965
000130 40 2f 23 3c 06 1d 0b bd 6c a5 9e bc 3f a4 bc bb
       0.009959996 -0.033963226 -0.019365989 -0.0057568843
000140 bd 20 01 3d 26 dc 7c 3d 7b 69 d8 3c 05 f5 0b bd
       0.031525362 0.061733387 0.026417485 -0.034169216
000150 63 9b ee 3a 74 15 92 bc f9 6d 5e bd ab 8f 89 bc
       0.0018204268 -0.017832495 -0.054304097 -0.016792139
000160 40 d3 16 bb fb eb aa 3b 97 30 0e 3d e0 a9 1b 3c
       -0.0023014098 0.0052161193 0.034714308 0.009500951
000170 27 26 40 3d 2c 6a 0f bb 52 18 f3 bb 3a 2b 21 3d
       0.046911385 -0.0021883352 -0.0074186707 0.039347865
000180 07 69 7a 3d 15 8c 94 3c 08 74 0b 3d e5 c5 95 bc
       0.061135318 0.018133203 0.034046203 -0.01828284

l2/W f4 [100, 100]
000000 38 27 65 3e 02 33 f7 3c c6 33 cb 3d 3b e0 8b 3e
       0.22378242 0.03017569 0.099219844 0.27319512
000010 5f 69 49 3e 77 07 d2 bd 41 e4 d4 3d d4 8b 45 bb
       0.19669102 -0.1025533 0.103950985 -0.0030143159
000020 51 e2 e4 bb 4e af b8 3d 2f d8 83 3d 9e 9f 18 3e
       -0.006984987 0.09017812 0.06437718 0.14904639
000030 ce 38 9e 3d 04 57 d9 3c af c0 ae 3d 71 c0 94 3d
       0.077256784 0.02653075 0.08532845 0.07263268
000040 74 dd 2c 3e c0 f0 75 3c 2b 34 50 3d 14 e7 9d bd
       0.16881353 0.015011013 0.050831 -0.0771009
000050 89 fc 99 be 91 b2 87 3d c0 32 ea 3d bd f0 97 bd
       -0.30075482 0.06625856 0.11435461 -0.07418964
000060 c4 5d 71 3e db 28 37 be 54 a7 7d 3c 21 6b 92 bc
       0.23570925 -0.17886679 0.015481789 -0.017873349
000070 b0 7e 40 3e 10 1b 3c 3e de 96 15 bb b7 5b 5f 3d
       0.18798327 0.18369699 -0.002282552 0.054530825
000080 97 b5 6d bd cf a7 74 be ef 4c e5 bc bb 59 8a 3c
       -0.058034506 -0.23892139 -0.027990786 0.01688849
000090 65 75 0c 3e 03 52 2c 3e ab b2 3f bd 00 f6 04 bd
       0.13716657 0.1682816 -0.04680125 -0.032461166
0000a0 c9 cf 7f bd 6c 59 11 be fb 52 2d be 50 73 60 3e
       -0.06245402 -0.14194268 -0.16926186 0.21918988
0000b0 d7 3b 7e bd 8d 89 25 bd a9 77 0c be 1b 4f d4 3d
       -0.062068786 -0.04041438 -0.13717522 0.10366651
0000c0 cc 11 43 be 13 47 39 bd 84 bd 9f bd 95 a5 0e 3d
       -0.19049758 -0.045233797 -0.07799819 0.03482588
0000d0 1c 6f 68 bd e8 63 f6 bd 23 fb 41 bb 99 fb 4e 3d
       -0.056746587 -0.12030774 -0.0029599152 0.05053291
0000e0 1a ef a8 3d 0e 97 47 3d f2 9a 90 bd 2b f9 e8 bc
       0.0824873 0.04872804 -0.070608035 -0.028439125
0000f0 ca c3 83 bd 81 b9 9c bc 83 b2 82 bd 6f f6 12 be
       -0.06433828 -0.019131424 -0.06381705 -0.1435182
000100 9d cb c4 3d 6a b8 23 bd 4d 43 71 be 94 83 46 3d
       0.09609149 -0.039970793 -0.2356083 0.048465326
000110 2f 8f a7 bd 7a e8 e3 3c 69 14 d2 3d 03 d5 ec 3c
       -0.08181607 0.027820814 0.10257799 0.028910166
000120 be 45 02 3e a1 fa fe bd 9d 65 7c 3d 60 42 88 bd
       0.12721917 -0.124501474 0.061620343 -0.06653285
000130 4f 5b b1 bd 14 bf 74 bd 8d 66 87 bb 05 36 f6 3c
       -0.08659994 -0.05975254 -0.004132098 0.030055055
000140 a2 f3 0d be fa f5 d0 3d 69 0d e8 3d 64 bd 1b be
       -0.1386247 0.10203166 0.11330683 -0.15208966
000150 00 51 39 3e 9d 99 4f 3e 87 6c f3 3d a9 4e ad bb
       0.18097305 0.20273443 0.11885934 -0.005288918
000160 7c 6d d7 bd 93 46 d8 3d 0b e4 2a bc be 87 4d 3e
       -0.10518929 0.10560336 -0.010430346 0.20071313
000170 5e 12 ee 3c b9 34 cc 3d b0 de 53 3d ae 93 cf 3d
       0.029061493 0.099709935 0.051726043 0.101355895
000180 74 5f 97 3b 2d 35 24 3e dd f4 6e 3d e8 65 49 3d
       0.004619533 0.1603591 0.05833899 0.04916945
000190 9a ad 4b 3e 2e 1c 1e be a9 6d bd bd a7 54 dc 3d
       0.19890442 -0.15440437 -0.09249432 0.10758334
0001a0 96 39 f5 bd 1a ea 6c 3e 3f e9 00 bd ff 68 76 bd
       -0.11973874 0.23136178 -0.03147244 -0.060158726
0001b0 f5 cd 3e 3e 11 58 44 3e 9c b6 2a 3e 40 7d b6 3d
       0.18633254 0.1917422 0.16671222 0.08910608
0001c0 11 61 af bd 88 ed 46 3e 60 d9 67 bc b8 4a af 3d
       -0.08563436 0.19426548 -0.014150947 0.08559173
0001d0 18 34 c0 3d f7 ad 38 bc fe 09 9b 3d ac 85 d6 3d
       0.09384936 -0.011271945 0.07570265 0.10474715
0001e0 ea 7e de 3c 6c a6 d0 bd 41 d1 f3 3c a4 b9 09 3e
       0.027160127 -0.101879925 0.029762866 0.13449723
0001f0 21 69 84 bd 35 5c 13 bd fb 86 42 bd 25 54 3c 3e
       -0.06465364 -0.035976607 -0.04749201 0.18391474
000200 45 a1 ce 3d 29 80 0f 3d e2 4e ca bd 7a df df 3c
       0.100893535 0.035034332 -0.09878327 0.027328242
000210 4e 39 ba bd dd cf 80 3c 0a aa a6 bd 7d f2 88 3d
       -0.09092961 0.015724117 -0.08137901 0.06686876
000220 8b 95 76 3d 80 eb 0f bd ad 73 ea 3c ed 08 d5 bd
       0.06020121 -0.0351367 0.028619612 -0.10402093
000230 6a 45 0b be 73 7f 04 3d ee d2 8e 3c 96 a6 78 3d
       -0.13600698 0.032348108 0.017434563 0.060705744
000240 f7 25 6b 3e 17 0d be 3d 87 ac af bd f4 f5 eb 3d
       0.22963701 0.092798404 -0.08577829 0.11521521
000250 4d f1 04 be 82 2f 1c bd b4 b9 76 bb a5 41 42 3e
       -0.12982674 -0.038131244 -0.0037647309 0.18970354
000260 6a 1e bc bd 98 f9 a8 bd d5 50 1e bc 7f 73 71 bd
       -0.091854885 -0.08250731 -0.009662827 -0.058948036
000270 a9 28 13 3e 83 ea da bd ea f6 eb bd 72 3c 08 bd
       0.1437098 -0.10689261 -0.115217045 -0.03326077
000280 71 51 2d bd 68 ec 54 3e c3 49 c4 3d 1c ee 89 bc
       -0.042313997 0.20793307 0.095843814 -0.016837172
000290 d3 5e f2 bd 4b 67 ad 3d b1 bc e8 bd 5b 5f 1e be
       -0.118344925 0.08466967 -0.11364115 -0.15466063
0002a0 8f d8 fb 3d c8 81 94 3d 93 c3 bd 3d e0 23 0d 3d
       0.12297165 0.07251316 0.092658184 0.03445804
0002b0 22 2c b1 3d fe 0a 8a bd dc 1c df bd ea f1 94 3d
       0.08650996 -0.06740378 -0.10894176 0.07272704
0002c0 3c fa a4 bd d4 e3 88 bd ef 88 16 bd 48 d7 e3 bb
       -0.08055541 -0.0668408 -0.036751684 -0.0069531538
0002d0 23 4c fc bc f3 4e 0e be f4 12 88 bd a8 bc 70 be
       -0.030798024 -0.13897304 -0.0664424 -0.23509467
0002e0 55 a6 be 3d ae 6a 39 be 86 16 d0 bd 22 64 d1 3c
       0.09309069 -0.18107101 -0.10160546 0.025560442
0002f0 cc cf 93 bd 41 f0 1d 3e 85 99 06 be 89 13 02 3d
       -0.072173685 0.15423681 -0.131445 0.03175691
000300 01 c6 aa bb 9c ae 09 be 18 37 b2 3d 92 5e 50 3b
       -0.005211592 -0.13445514 0.087019145 0.003179465
000310 9b 1e b6 3d a3 53 c2 3d 30 6d 70 3e dc bb 1a 3e
       0.08892556 0.09488609 0.23479152 0.15110725
000320 a5 26 18 bd d9 74 c2 bc a9 72 dd 3d 62 70 85 3d
       -0.03714623 -0.023737358 0.10812885 0.06515576
000330 b6 56 82 3d bc 16 26 be 44 af 49 bb b0 58 9a bd
       0.06364195 -0.1621961 -0.0030774632 -0.07536447
000340 af c6 e4 3c 93 6c 25 bc cf 22 ba 3d 70 3d 00 3d
       0.027926771 -0.010096687 0.090886705 0.03130859
000350 30 4d a0 3d d9 21 3f bd 52 45 c2 bd e5 5f 27 bd
       0.07827222 -0.04666314 -0.09485878 -0.040862937
000360 e8 ba cf ba 03 b3 1b 3d bd 95 66 3e 2a c0 9b bb
       -0.0015848549 0.038012516 0.22518058 -0.0047531324
000370 a0 58 c5 bd f8 06 0f bd 93 f5 3d bd 4c 3b 45 3d
       -0.096360445 -0.034918755 -0.046376776 0.048152253
000380 a0 d7 1d be ff 2c bc 3b 94 3d 7c 3c 52 63 bb 3c
       -0.15414286 0.0057426686 0.015395541 0.022874508
000390 a8 4f 77 bd e2 cf c9 bc 98 3e 12 be 9a e9 4b bd
       -0.0603787 -0.024635259 -0.1428169 -0.049783327
0003a0 d7 e0 5f bd c1 2c 2a 3d 33 c7 ec bd 79 d6 9f 3d
       -0.054657783 0.041546587 -0.11561432 0.07804579
0003b0 64 f9 18 3e 04 b4 53 be cf 0c 2f 3d 39 01 89 3d
       0.14938885 -0.2067414 0.042736825 0.06689686
0003c0 7e 24 83 bd 01 16 23 bd 40 25 5c bc eb 3f f6 bc
       -0.06403445 -0.039815906 -0.0134366155 -0.030059775
0003d0 e5 cf ff bc f1 f4 2b be d8 75 ea 3d dd 17 dc 3d
       -0.031227062 -0.16792656 0.11448258 0.10746739
0003e0 cf bf a7 bd c4 9f 16 be 78 37 4c 3d 95 a9 70 bd
       -0.081908815 -0.14709383 0.049857587 -0.058755476
0003f0 c8 e7 5b 3c 9d 75 04 bd 41 2c 8d 3d 68 1f 8e 3d
       0.01342196 -0.032338727 0.068932064 0.06939584

l1/b f4 [100]
000000 13 f5 28 3d 2a 59 01 bd 50 bb 04 bc b9 6c 0e 3d
       0.041249346 -0.031579174 -0.008101299 0.034771655
000010 f5 79 b8 bc 6f 72 05 3d ff e0 23 bb ea e0 cf 3c
       -0.022519091 0.032579836 -0.0025005934 0.025375802
000020 fd 19 92 bc e5 6f 0d 3d 1b 20 36 3d 84 3c 34 3c
       -0.017834658 0.03453054 0.044464212 0.011000756
000030 1c 11 72 bb 61 90 d6 3c 9a de ae bc cc 3a 39 3d
       -0.0036936468 0.026191892 -0.02134638 0.04522209
000040 91 5f 46 3d 53 00 8d 3c e7 dd b5 bb 24 c4 0e 3d
       0.048430983 0.017212069 -0.0055501345 0.034855023
000050 4e 12 b0 bc 69 90 33 3d 17 5a ab 3d 30 3a a9 3c
       -0.021493103 0.043838892 0.08366793 0.020657629
000060 ef 30 20 3d da c3 1d 3d b0 c0 4d 3d 2c 88 59 3b
       0.039109167 0.038516857 0.05023259 0.0033192737
000070 c8 d6 a6 3d bd e7 61 3c dc df f8 bc 70 1b 6e 3a
       0.08146435 0.013788161 -0.030380182 0.0009083068
000080 a8 df 36 bd 93 cc 0e 3c 28 50 a4 3b 57 31 81 3b
       -0.04464689 0.0087157665 0.005014438 0.0039426493
000090 47 6d ae 3b 04 4a 70 3c 9c af a1 bc 77 f1 58 bd
       0.0053230855 0.014666084 -0.019737057 -0.052964654
0000a0 32 77 16 3d 8d d5 bf 3d 24 6e e0 bb aa ed 86 3d
       0.036734767 0.093669035 -0.0068490673 0.065882996
0000b0 a7 5a d9 bc 4a 2d 99 bb 12 b3 72 bc c2 08 19 3d
       -0.026532484 -0.0046745883 -0.0148132015 0.037361868
0000c0 1a 8a 1e 3c 97 3a 3c 3d 1a f9 3b 3d 42 b2 df 3d
       0.009676481 0.045954313 0.04589186 0.10922672
0000d0 b4 fa 42 3d 89 ef 82 bc 36 6a ee bb 6e 25 5a bb
       0.04760237 -0.01598336 -0.007275845 -0.003328647
0000e0 2e 0d dc 3d 73 e6 aa bb ca 6c 28 3c 74 72 a4 3c
       0.10744701 -0.00521546 0.010279844 0.020074107
0000f0 e3 ae 8d 3c 13 78 d6 3c 61 42 87 3d a5 9e 82 bc
       0.017295307 0.026180303 0.06604458 -0.015944788
000100 b2 93 46 3d 1c a6 30 bb c2 ed 16 bd 1d d2 76 bc
       0.048480697 -0.0026954478 -0.036847837 -0.015064743
000110 1c a6 3a 3c ca c1 49 3d 15 10 85 3c 57 e0 5a 3c
       0.011392143 0.049257077 0.01624302 0.013359151
000120 fb d2 c7 bb 6e d2 26 bb e7 71 f9 bb 3a f4 4c bb
       -0.006098149 -0.0025455016 -0.007612455 -0.00312735
000130 7c 16 c8 3a b1 a9 c4 bc bd 4a 6b 3c e6 f1 1f bc
       0.001526549 -0.024006696 0.014361081 -0.009762263
000140 7d 00 d9 3c 2c f4 fc 3c bb 99 f4 bb dd 76 eb 3a
       0.02648949 0.030878149 -0.007464615 0.0017964501
000150 1a 62 68 3d 13 24 ee 3c c8 b8 9c bb 80 31 1e 3c
       0.056734182 0.029069936 -0.00478277 0.009655356
000160 b9 1c ad 3c 7a e8 8b bb 48 b4 d2 3c 8f f7 94 3d
       0.02113186 -0.0042696567 0.02572073 0.072737806
000170 81 14 4c bb 72 1f 5b 3d 22 1a 98 3d be 6a 17 3d
       -0.003114015 0.053496785 0.074268594 0.03696703
000180 20 b3 4b 3c 5f c0 d5 3c 2a 62 9a 3d 95 7c 1c 3d
       0.012432843 0.026092706 0.075382546 0.03820475

l1/W f4 [100, 784]
000000 d7 ac 1c 3d 17 47 cf 3c 8a d5 02 3d 93 a3 fd bc
       0.03825077 0.025302453 0.031941928 -0.030961787
000010 41 d8 63 bc 16 c0 6c 3d 4b 60 85 bc c8 38 20 bd
       -0.013906539 0.057800375 -0.016281268 -0.03911665
000020 2c 87 62 bd f5 60 88 3d ed 39 a7 bb 30 89 56 3d
       -0.05530469 0.06659118 -0.005103341 0.052376926
000030 56 fd 50 bc 3e ec 3f bd 52 1d 7a bb ce 4f 94 3c
       -0.0127557125 -0.046856157 -0.003816445 0.01810446
000040 e5 fe 7c 3c 18 fc 24 bd 6f e4 24 bd e0 0a a4 3d
       0.015441631 -0.040279478 -0.040256914 0.08009887
000050 87 ec 21 bd 05 17 51 bc c9 cd 2c bc 16 20 ff 3c
       -0.03953221 -0.012761836 -0.01054711 0.03114323
000060 93 d5 e4 3c 69 12 f9 3c 39 63 5b 3d 7c d5 bb bc
       0.027933871 0.030404286 0.053561423 -0.022928946
000070 c3 18 df 3c 5f e6 a8 3d d2 66 bc 3b 5d 1b 17 bd
       0.027233487 0.08247065 0.005749562 -0.03689133
000080 38 24 ec bc 2e dc 23 3d bd ea be 3b 0b e7 6f bc
       -0.028825864 0.0400049 0.005826323 -0.014642487
000090 87 ff d3 bc 05 d8 b0 3c 49 a6 80 bc 9b b0 5e 3d
       -0.02587868 0.021587381 -0.015704291 0.054367643
0000a0 ca d6 33 bb 4e f8 05 bd 9b 46 8a bd 6d 0a 6c bd
       -0.0027441257 -0.032707505 -0.06751748 -0.05762713
0000b0 53 a2 2a bd 0e 2b b8 bc 09 44 08 bd 4d 3a a1 bd
       -0.04165871 -0.022481468 -0.03326801 -0.07872448
0000c0 77 9e 6c bd 70 a4 62 bd 4e 83 4c bd 6d 2a 69 bd
       -0.05776831 -0.0553326 -0.04992991 -0.056925226
0000d0 6b 95 35 3c 2a bb ac 3c bf b1 e8 bc d5 aa 3c 3c
       0.011082987 0.02108534 -0.028405068 0.011515339
0000e0 21 30 4d bb b0 73 56 3c 90 47 96 39 48 51 36 bc
       -0.0031309205 0.0130891055 0.00028663548 -0.011127777
0000f0 88 99 8f bd a6 2b 2d bc 81 cd 20 3d cc 67 0a bd
       -0.07011706 -0.010569489 0.039258484 -0.033790395
000100 5c df 6d 3d 67 58 21 3d 82 1c b9 3c 9e 60 4f 3c
       0.05807434 0.039390948 0.022596601 0.012657313
000110 dd e1 0b bd d3 02 98 bd 8d 68 c2 bd 8e 4c 43 bc
       -0.034150947 -0.07422414 -0.09492598 -0.0119201075
000120 a5 7d 0c bb fe 18 37 bd e8 bf f7 3c e4 1a c6 3b
       -0.0021437195 -0.04470157 0.030242875 0.006045686
000130 bc 01 1f bc 22 ad 47 3d 29 ac f9 ba 35 d3 73 3d
       -0.009705003 0.048749097 -0.00190485 0.059527595
000140 bd 18 82 3d b4 41 db 3a eb 89 f9 bc e8 db 4d 3c
       0.06352375 0.0016727955 -0.030461272 0.012564637
000150 91 75 26 3c 15 63 d1 3c 78 eb 80 3d 2d be 9a 3c
       0.010159866 0.025559941 0.06294912 0.018889511
000160 8e 06 95 bc 2f 79 e5 3c af 5c bf 3c 8c 72 cf bc
       -0.018191602 0.028011886 0.023359625 -0.025323175
000170 29 61 b4 3c 08 d1 92 bc 01 70 f3 3d dd 57 19 bc
       0.022018986 -0.01792194 0.118865974 -0.009359327
000180 00 33 80 bd 62 14 4c 3d c6 21 a8 3c f9 d0 fd bc
       -0.062597275 0.049824126 0.020523917 -0.030983435
000190 4d f1 14 bd f7 4e 3c 3d 81 87 0c 3b 87 60 94 bb
       -0.036362935 0.045973744 0.0021443071 -0.0045281085
0001a0 12 68 6d bd ea bb 69 3c c2 72 29 3c 92 fb 6f 3c
       -0.057960577 0.014265994 0.010342302 0.014647381
0001b0 3a b5 3e 3d e4 9a 85 bd c4 14 8c 3d a0 08 94 3d
       0.04655955 -0.06523684 0.06839898 0.072282076
0001c0 3b fe b7 3c 2a 25 1b 3d b4 4d 95 3d e0 dd 93 bc
       0.022460094 0.03787724 0.07290211 -0.018050134
0001d0 cb 59 bb bc 44 ab f8 39 bb 2c 6d 3d eb ed 28 3b
       -0.022869965 0.0004742985 0.057903986 0.0025776576
0001e0 0d 92 29 bc 61 09 e0 bb 8f 9b 9e bc d5 f5 0f 3d
       -0.010349763 -0.0068370556 -0.019361285 0.035146553
0001f0 9b fc a4 3a 47 de 24 3c dc fc 3f 3d c3 87 66 3d
       0.0012587489 0.010062761 0.046872005 0.056281816
000200 1e 5e bf 3b ad 92 0c 3d fc 64 2b bc 0a a6 01 bc
       0.005840077 0.03431957 -0.010461088 -0.007913122
000210 7f bb 3b bc 2d 2d f9 bc 97 58 81 bb 0b e8 73 bd
       -0.011458277 -0.03041705 -0.0039473283 -0.059547465
000220 59 8f dd 3b b7 c5 1c 3d 31 e7 97 bc a4 df 35 3d
       0.006761473 0.038274493 -0.018542858 0.044402733
000230 94 b6 73 3d 27 9a 3b 3d 77 76 a4 bc 02 dc 30 3c
       0.059500292 0.045801308 -0.02007602 0.010794641
000240 0a 6c 8d 3c f1 1f 16 3c 36 5a 94 bc d0 f6 83 bb
       0.017263431 0.009162889 -0.018109422 -0.004027225
000250 6d b6 49 bc 8a 6c 8c bc 62 d1 e4 3c 3e 45 c5 3a
       -0.01231156 -0.0171416 0.027931873 0.0015050543
000260 e3 ce 26 bd b5 fc c7 3c 72 1d 95 3c 32 53 61 3c
       -0.040724646 0.024412492 0.018202517 0.013752745
000270 ba 40 76 3d 1b e3 c7 3c 51 45 94 3d 00 8b 09 bb
       0.06012032 0.024400285 0.072397836 -0.0020987391
000280 da d6 bc bc c3 30 44 3c 91 c3 5c 3d 6d d6 01 3c
       -0.023051668 0.011974516 0.053897444 0.007924658
000290 c9 ad 3c bd ed 2b 39 bd b2 33 34 3c 62 8f 3b 3c
       -0.046064172 -0.045207907 0.010998653 0.011447759
0002a0 0b 4d 80 3d 6d 72 27 3d 65 41 59 3a 59 20 11 3c
       0.06264695 0.04088061 0.00082876376 0.00885781
0002b0 4d 21 83 bd eb 7b b3 3d f3 f3 85 bd b9 b2 03 3d
       -0.06402836 0.0876387 -0.0654067 0.032152865
0002c0 45 e7 2c bb 3a 75 3d 3c e2 85 30 3d 4f 90 9e bb
       -0.0026382965 0.0115635935 0.04309643 -0.0048389803
0002d0 31 af ba bc d7 ea 77 3c ed de c5 bc 3f e4 e2 3b
       -0.022788616 0.015131674 -0.02415415 0.0069241817
0002e0 cc 60 e5 bb 8b 29 00 3d 1a 29 91 bd 75 be f5 bc
       -0.0070000645 0.03128962 -0.070879176 -0.029998044
0002f0 ea 1c 8c bd 1f 0f d9 3c 5e 72 40 bd 21 a5 3a 3d
       -0.068414524 0.026496468 -0.04698407 0.045567635
000300 73 d5 9c bc 5c 6f 80 3c 6f 3b 0b 3d 16 67 41 bd
       -0.01914475 0.0156781 0.033992227 -0.04721745
000310 d6 36 66 bd f5 ad 0b 3c 20 aa d3 3c 46 1c 3e 3d
       -0.05620464 0.008525361 0.025837958 0.046413682
000320 94 75 f1 3b 09 da 67 3d e9 9f 69 bd 49 ea ff 3c
       0.0073687527 0.05660442 -0.057037268 0.031239646
000330 bb af 18 bd 13 a6 be 3c c4 aa f4 bb 8d 07 0c bd
       -0.037276965 0.02327255 -0.007466646 -0.03418689
000340 92 a4 1f bd c1 34 82 3b 2b b3 6e 3c 87 cc 10 bd
       -0.038975306 0.003973574 0.014569084 -0.035351302
000350 d4 84 40 bd 67 44 3a bd aa ca 93 bd 03 c6 0e bc
       -0.047001675 -0.04547539 -0.072163895 -0.008714202
000360 8f 10 14 3c 90 e2 7d bc 73 72 c3 bc df 22 af 3c
       0.009037151 -0.015495911 -0.023858285 0.021378933
000370 f9 55 d3 bc 14 fa 95 bb 22 bc 20 bc 04 56 f4 bc
       -0.02579783 -0.004576931 -0.009810479 -0.029826172
000380 0c 1d 89 3c d0 b3 37 3d 5b 05 92 bc 6f b0 06 3d
       0.016737483 0.044849217 -0.01782482 0.032883104
000390 38 01 c0 bc 8e c1 15 bd bf 60 2e bd dc 86 90 bd
       -0.023438081 -0.03656154 -0.042572733 -0.070569724
0003a0 ac 1f 88 bd 29 cc 83 bd 34 f3 25 bd 93 3b 77 bd
       -0.06646666 -0.06435425 -0.04051514 -0.06035955
0003b0 06 57 f6 bc ef 75 ad bd a7 94 2d 3d 0f d2 14 bd
       -0.030070793 -0.0846976 0.042378094 -0.03633314
0003c0 0a 1a 89 bc 44 6b cd 3c 65 bb 26 3c 7f 77 98 3b
       -0.01673605 0.025075562 0.010176514 0.004652917
0003d0 a1 89 68 3d 41 b9 13 3d 8c b0 82 bc 4c b9 29 3d
       0.05677188 0.036065344 -0.015953325 0.04143648
0003e0 63 fa 27 bc 48 d4 28 bc 5a 8e 4c bd b0 ca 8d 3d
       -0.010252568 -0.010304518 -0.049940445 0.06923425
0003f0 36 7c 05 3c 44 b5 98 bd fd 2a 1a 3d 98 b7 bf 3b
       0.00814729 -0.07456449 0.037638653 0.0058507435

l3/b f4 [10]
000000 27 7b 6b bd 1a 57 e2 3d 09 cf 97 ba e7 cd 1d bd
       -0.057490494 0.110517696 -0.0011582087 -0.038526442
000010 4d b9 11 bd 68 3b 50 3e 9b 32 0a bd 95 01 c1 3c
       -0.035577107 0.20335162 -0.033739667 0.023560325
000020 8a b0 18 be f8 cc b2 bc
       -0.14911094 -0.021826252

l3/W f4 [10, 100]
000000 c3 3b b3 bc 04 44 f9 bd 7f e9 30 3e 34 8f 9c 3c
       -0.021879083 -0.12171176 0.17276572 0.019111253
000010 6e d8 99 bd c2 3c e3 bd 55 00 c7 3d bd 31 05 3e
       -0.07511984 -0.11095573 0.0971686 0.13007255
000020 9c 68 d5 bc 90 6c cf bd 6f ce 0e bd cb b8 a0 be
       -0.026050858 -0.101281285 -0.03486484 -0.31390986
000030 30 28 f4 3d cd 2d 61 3b 73 54 02 bc cf 85 53 3e
       0.11921728 0.0034359575 -0.007954705 0.20656513
000040 d1 85 41 be d8 28 b5 bd 03 0a e2 bd 39 52 ec 3d
       -0.18898703 -0.08845681 -0.11037066 0.1153912
000050 28 3b 1a 3e 40 d0 65 3e f5 36 7c 3d 7a 9f a5 bc
       0.15061629 0.22442722 0.06157585 -0.020217646
000060 81 08 da be f1 5e 22 bd 3b 71 2a be 9a 55 07 3e
       -0.42584613 -0.039641324 -0.16644756 0.13216248
000070 87 43 15 be c4 c6 53 3e 26 e6 15 bd 68 06 03 be
       -0.14576541 0.20681292 -0.03659644 -0.12795413
000080 ef 23 89 3d 85 21 53 3e bd 28 c5 bc df 07 7e 3e
       0.06696307 0.20618255 -0.024067277 0.2480769
000090 13 e2 48 bd de 93 50 be fe 2f e7 3d df 3e a1 bd
       -0.049043726 -0.20368907 0.11288451 -0.0787332
0000a0 81 d8 f1 bd 53 23 6a bd ff ae 63 3b 87 50 92 bd
       -0.11808873 -0.057162594 0.0034741757 -0.071442656
0000b0 2a 00 e8 3c ed 74 3e 3d d7 4d 8a 3d 9a ea 9e be
       0.02832039 0.046498228 0.06753128 -0.31038362
0000c0 cb ff eb 3d 46 1a 8e 3d 33 6f 61 3e d1 70 71 3e
       0.11523398 0.06938605 0.22015075 0.23578192
0000d0 32 17 14 3d 11 7e 66 3d 60 72 b7 3d ab 00 49 bd
       0.036154933 0.05627257 0.08957362 -0.049072903
0000e0 4a 12 99 bd 1c b4 88 bb 78 ec 8e 3d a6 6f b0 bd
       -0.074741915 -0.0041718613 0.069786966 -0.08615045
0000f0 22 80 97 be 96 e4 a3 3e e2 cb c0 3d 05 fc 3e bd
       -0.29589945 0.32010335 0.094138876 -0.046627063
000100 ac 15 68 be fd 52 4a be 8c 89 a6 3e 08 c4 23 be
       -0.22664517 -0.1975822 0.32526815 -0.15992749
000110 32 c3 38 3e 2c c1 33 be 07 6a 9a bd d4 93 4f bd
       0.18043211 -0.17554158 -0.07539754 -0.05067809
000120 54 d2 00 3d 96 bf 6d 3e 13 0a 30 3e f1 34 37 3e
       0.031450585 0.23217615 0.17191343 0.1789129
000130 53 c4 68 bd eb 9a f1 3d 74 0d 82 bc 68 c6 3d be
       -0.056827854 0.117971264 -0.015875556 -0.18532717
000140 6e 63 45 3e be 94 7c bd 90 cf 3a 3d 53 b0 ce bb
       0.1927621 -0.06166529 0.045608103 -0.0063076406
000150 09 eb 43 be ec 80 aa 3d 46 d8 17 3d fa 1b 0d 3e
       -0.19132628 0.08325371 0.03707149 0.13780203
000160 8a 5f 38 3d aa e8 07 3d 28 4a 95 3d ee aa 7e 3e
       0.04501299 0.03318087 0.07289535 0.24869892
000170 12 f1 83 bb 1a 47 8d 3e be 30 9b be 2e 4d 5d be
       -0.0040265406 0.2759331 -0.30310625 -0.21611473
000180 91 2b aa be 5e bc f9 3d 5b b4 93 3c 5d 10 eb bd
       -0.33236364 0.12194131 0.018030336 -0.114777304
000190 ec 43 87 bb 30 73 1b 3d 70 15 b9 3c 5e 2a b2 3d
       -0.00412797 0.03795165 0.02259323 0.08699487
0001a0 40 28 55 3e 15 0c 25 3e 3f d7 99 3d 05 09 e7 bd
       0.20816135 0.1611789 0.07511758 -0.11281017
0001b0 37 4c 87 bd a8 aa 01 be 5f 16 24 bd bd 06 97 3e
       -0.06606334 -0.12662756 -0.040060397 0.29497328
0001c0 e4 aa 1e be 3d bb 79 bd bb 24 6d 3d 75 f0 fa 3d
       -0.15494877 -0.06096958 0.057896357 0.12252895
0001d0 e6 75 04 bc 4f 18 8c 3b 97 8c 69 3e 31 be 66 3e
       -0.00808475 0.0042753587 0.22807537 0.2253349
0001e0 1b b7 9e bd 1c d1 93 be 6b 57 89 3c 86 ed e9 3d
       -0.07749768 -0.28870475 0.016765317 0.11422257
0001f0 09 d5 9e bd e4 09 91 3d 14 8e 43 3d d7 f4 2e be
       -0.07755477 0.070819646 0.047742918 -0.17085586
000200 aa 23 74 bb 36 35 cd bd 5e 34 92 3d fd 65 b1 3d
       -0.0037252703 -0.10019915 0.071388945 0.08662031
000210 e4 c4 40 3d 99 f1 f1 3d f0 d9 3f 3d a6 eb 2d 3e
       0.04706277 0.11813659 0.0468387 0.16984424
000220 82 29 1f 3e c7 bc 03 3e 8f d2 97 3e a1 36 00 3e
       0.15543178 0.12864982 0.2965283 0.1252084
000230 22 8a eb 3e 1e dc 23 be 89 54 c3 3b 43 77 0b 3c
       0.46003824 -0.16001937 0.005961005 0.008512321
000240 29 0a 13 3e 16 e8 d4 bc 3b 9f e4 3d b9 cf d9 3d
       0.14359345 -0.025989573 0.11163183 0.10635323
000250 96 b3 b0 3d c3 69 37 be 5e 44 44 bd 32 67 b9 3c
       0.08628003 -0.17911439 -0.047916763 0.022632215
000260 df 9a 09 3d 0e d5 3b 3d 73 27 06 bd 9a 1b 31 bd
       0.033594962 0.04585748 -0.032752465 -0.043239214
000270 36 c6 e9 3c 34 0d e1 3c fe e5 77 3e 34 77 33 3c
       0.028536897 0.027472116 0.24208829 0.010953713
000280 84 b5 b6 3c b3 85 8d be 8c 79 32 be d6 5d 9f 3c
       0.02230335 -0.27641067 -0.17429179 0.019453924
000290 e2 e6 a4 bc 2f f4 e6 bd 84 28 9f be 78 a8 f8 3e
       -0.020129625 -0.11277043 -0.31085598 0.4856603
0002a0 f8 ed 76 3d f6 85 b5 bc 43 14 4d 3e ca 47 16 be
       0.06028554 -0.022158604 0.2002726 -0.14675823
0002b0 79 94 13 3d 20 41 b1 bd a6 66 27 3e 2d 36 2a bd
       0.036030266 -0.08655 0.16347751 -0.041555572
0002c0 ba c0 aa be 6d b9 59 3e ff 1f 43 be 64 64 d2 bd
       -0.33350164 0.2126214 -0.19055174 -0.10273054
0002d0 03 0d 73 3d 52 66 72 3e b0 98 76 bd 96 ab 0c be
       0.05933858 0.23671845 -0.060204208 -0.1373733
0002e0 4a 6e 4b be ca 70 dc bd a0 6c 3c be 45 4c 1c be
       -0.1986629 -0.107637 -0.18400812 -0.1526347
0002f0 a3 10 8d bd ad 23 84 bd 9d df 61 3e 98 e6 00 bf
       -0.06887939 -0.06452117 0.22057958 -0.5035186
000300 93 f0 89 be 71 5a bd bd 52 b4 e0 bc d0 28 00 be
       -0.26941356 -0.09245766 -0.027429733 -0.12515569
000310 19 66 58 be e2 45 e3 3d e8 9f 40 3c e3 ad 17 3e
       -0.21132697 0.110973135 0.011756875 0.14812426
000320 b7 18 e4 3d 66 dc 2a be 9f f7 0c 3c c9 15 23 bc
       0.111375265 -0.16685638 0.008603959 -0.009953924
000330 7d eb 00 3e 99 6f d3 bc f2 1c fd bd 6b 08 0f 3e
       0.12589832 -0.02581005 -0.123590365 0.13968055
000340 36 91 8e 3d 3d 3d 53 3d 7b f2 c4 3d be fe 69 3e
       0.069612905 0.051572073 0.09616562 0.22851083
000350 40 0b 38 be 5d 98 bf bd 61 53 f8 3d c0 c1 14 3e
       -0.17973042 -0.09355233 0.12125278 0.14527035
000360 1f 19 1c 3d bc 23 e6 bd 15 75 f7 3d 22 5a 96 3d
       0.038109895 -0.112372845 0.120828785 0.0734141
000370 8c 7b 0f 3c 37 59 84 be 6d 72 a5 be b1 de ca bc
       0.008757483 -0.25849316 -0.32313862 -0.02476439
000380 a4 5f 0f 3e bf 60 9f bd 29 da a1 3e 01 a4 74 bd
       0.14001328 -0.07782125 0.31611755 -0.05972672
000390 66 1d ba 3b d3 5b 4b bd 16 1d 37 3d 2d f7 46 3e
       0.005679774 -0.049648117 0.044705473 0.19430228
0003a0 8e aa 4f 3e ba da b0 3e 01 e4 4f bd 12 d7 f9 bd
       0.20279905 0.34541875 -0.05075455 -0.121992245
0003b0 9c 58 04 be 83 c3 80 bd b9 1a 43 be af 4a a1 bd
       -0.12924427 -0.06287291 -0.19053163 -0.07875573
0003c0 a0 57 5e be 53 b5 f4 3e 57 e6 a9 3c 91 08 6f 3c
       -0.21713114 0.4779459 0.020739717 0.014589445
0003d0 1c 67 53 be e1 93 1d be 8c 37 0b 3d ef 50 64 be
       -0.20644802 -0.15388443 0.03398852 -0.22296499
0003e0 6c 7a 40 be 84 55 43 be f1 03 b5 3e f9 04 c1 bd
       -0.187967 -0.1907559 0.3535457 -0.094247766
0003f0 0d ce 2f be 6f 4c 47 bd d2 09 6d 3e d8 22 a3 bb
       -0.17168446 -0.048656877 0.23148277 -0.004978519
